average_word_vec/model.tflite (tflite, 457524 bytes, 4 tensors)

sequential/embedding/embedding_lookup/1010642 f2 [10003, 16]
00000000: 863a 5aad b935 07bc f1b9 a040 cb3c 9428
00000010: 9fbc c1ab d23a b4b3 0aae 6d3a 4340 b93c
00000020: ad2b 7bbf 5038 9d38 8fc5 12c4 9cc1 6235
00000030: 2041 d434 30be e9b6 07bb 2b3a 94c2 95bf
00000040: 8dac 8abd cb3c c83a 17c7 03c4 dac3 103d
00000050: 6141 0737 00bd 4bb5 1abe e73a 06c4 a2bd
00000060: 3dba c1be 733e 333f 09c8 a9c5 8bc4 713d
00000070: 3d44 b43b ecc1 62bb 9cc0 4d39 71c5 dfc0
00000080: 563a 47c1 0136 0f2c 31c8 91c4 35c4 9a3d
00000090: 2d40 e9b5 0abe d832 d6bd 703f a3c2 f2bf
000000a0: 2cb3 10c0 e13c 9c3c 34c8 a1c5 f9c4 f53e
000000b0: 0c44 3e36 78c1 66b9 6dc0 533d 47c5 a6c0
000000c0: cbb4 20bf f53d 813b ebc7 96c4 27c4 703d
000000d0: e941 d939 d5c0 d2b6 bbc0 d33b 51c4 4ac0
000000e0: 2335 68c0 3b39 f135 41c8 afc4 1ec4 893e
000000f0: 1241 a12d 5ebf bdab b1be 1e3d 0ac4 b2bf
00000100: 85ad b1bd 133e 153a f5c6 2bc3 93c2 a63e
00000110: b641 ae38 6fc0 78b9 5fc0 0b3d c5c2 7cbc
00000120: e340 1cc0 6fb7 5ec0 cac5 4eba 03c1 933c
00000130: 03bc f8bc 023b 413a 8812 0f41 e539 e1b7
00000140: a535 19c0 b13c 8033 11c8 75c2 e3c2 fa3d
00000150: 9240 0934 e6bf 3cb6 39bf e73d 82c0 89ba
00000160: 5c37 31c0 e13c f933 2ac8 d0c2 6cc3 1e3e
00000170: 9d40 fc34 0ec0 5dba 21bd f93e 90c1 3bbd
00000180: 9537 3ebf b73b a82c 23c7 4cc2 81c2 b33e
00000190: 3e3f 1e32 16bf 9ab5 afbd f33d 69c0 bbbc
000001a0: 40b4 8ebe 353d b438 5ec7 77c4 28c3 8c3d
000001b0: 9941 c238 80c0 cdb5 dbbe 0c3a 1bc4 89c0
000001c0: bfa9 19be 913c 3538 80c6 2fc4 72c1 a33c
000001d0: ff40 bf35 d2be e0b3 24be ac3c a2c3 78bf
000001e0: e137 70bc 443b d3b5 16c5 a2c0 e8be 5739
000001f0: c73f fd25 f7bb f9b2 71bc 483c aabf 2abc
0.8154 -0.0836 0.3577 -1.007 -0.7427 2.312 1.198 0.03577
-1.155 -0.06058 0.8525 -0.2407 -0.09436 0.803 2.13 1.181
0.05997 -1.87 0.539 0.5767 -5.56 -4.07 -2.805 0.3364
2.562 0.3018 -1.547 -0.432 -0.8784 0.771 -3.29 -1.8955
-0.0711 -1.385 1.198 0.8477 -7.09 -4.01 -3.926 1.266
2.69 0.4392 -1.25 -0.3308 -1.525 0.863 -4.023 -1.408
-0.78 -1.688 1.612 1.8 -8.07 -5.66 -4.543 1.36
4.24 0.963 -2.96 -0.923 -2.305 0.6626 -5.44 -2.436
0.792 -2.639 0.3752 0.0634 -8.38 -4.566 -4.207 1.4
2.088 -0.3694 -1.51 0.2139 -1.459 1.859 -3.318 -1.986
-0.2241 -2.031 1.22 1.152 -8.41 -5.63 -4.973 1.739
4.047 0.3901 -2.734 -0.675 -2.213 1.331 -5.277 -2.324
-0.2996 -1.781 1.489 0.938 -7.918 -4.586 -4.152 1.359
2.955 0.731 -2.416 -0.4263 -2.365 0.978 -4.316 -2.145
0.321 -2.203 0.654 0.3713 -8.51 -4.684 -4.117 1.634
2.535 0.08795 -1.842 -0.06046 -1.673 1.279 -4.04 -1.924
-0.08624 -1.423 1.519 0.7603 -6.957 -3.584 -3.287 1.662
2.855 0.585 -2.217 -0.6836 -2.186 1.261 -3.385 -1.121
2.443 -2.055 -0.4646 -2.184 -5.79 -0.788 -2.506 1.144
-1.003 -1.242 0.876 0.7817 0.0007973 2.53 0.737 -0.4924
0.3528 -2.049 1.173 0.2344 -8.13 -3.229 -3.443 1.494
2.285 0.2522 -1.975 -0.3896 -1.806 1.476 -2.254 -0.817
0.46 -2.096 1.22 0.2491 -8.33 -3.406 -3.71 1.529
2.307 0.3115 -2.027 -0.7954 -1.282 1.743 -2.781 -1.308
0.4739 -1.811 0.9644 0.07275 -7.137 -3.148 -3.252 1.675
1.811 0.1912 -1.771 -0.35 -1.421 1.487 -2.205 -1.183
-0.2656 -1.639 1.302 0.588 -7.367 -4.465 -3.578 1.387
2.799 0.5947 -2.25 -0.3625 -1.714 0.756 -4.105 -2.268
-0.0449 -1.524 1.142 0.526 -6.5 -4.184 -2.723 1.159
2.498 0.3591 -1.705 -0.2461 -1.535 1.168 -3.816 -1.867
0.4924 -1.109 0.908 -0.364 -5.086 -2.316 -1.727 0.6675
1.944 0.02339 -0.9956 -0.2179 -1.11 1.07 -1.916 -1.041

sequential/dense/BiasAdd/ReadVariableOp/resource f2 [16]
00000000: 28be 3fb9 2bb9 22b6 47bc 90b8 70bc bebd
00000010: b9bc c9bc 0db8 d1ba 92bc 9abc 2abd 74af
-1.539 -0.656 -0.646 -0.3833 -1.069 -0.5703 -1.109 -1.436
-1.181 -1.196 -0.5063 -0.852 -1.143 -1.15 -1.291 -0.11646

sequential/dense/MatMul f2 [16, 16]
00000000: 4d39 783b 33af a9bd 1639 292e 66b2 5040
00000010: 9e34 f1ba 583f a6b9 e02d 64ad 53b5 b3b6
00000020: d3ae ccb5 aab5 0cb6 82a6 501a b4b0 503d
00000030: 33a8 da39 4040 20b3 3b2e 2eb9 2fa9 50b8
00000040: dcb4 cbb6 3037 af32 1b29 c82d cc39 57bc
00000050: 0134 b22e baac 57b7 96b2 b6ab 2335 81b5
00000060: 81b7 c98e 0c32 b139 f130 f433 7c32 993c
00000070: d9af 913a cd3d 3eb6 bbbc ebb4 311a 7db8
00000080: 0836 77bc 4bad 5aba 0bb0 7439 55ac c4bb
00000090: ac35 35ba 21b8 b5b6 a72b 59ad 75b1 7cb7
000000a0: eb2d 49bb 7db5 7b34 1dae 66b3 dda4 baab
000000b0: cbbb 6331 523c d8b6 22b4 62b4 a1b2 8cb0
000000c0: dd37 7cb9 cdb6 92b1 bdae a8a5 04b9 84bb
000000d0: 0e2a 3cbb 5a29 1ab7 502e 0336 1638 3c26
000000e0: d633 65b8 55b8 babb 362c d630 1cb1 2137
000000f0: c02a 57b9 1fb0 b535 c832 6739 6235 ffb4
00000100: 1ca7 3dbc d4b8 55ba 149b e237 6eb6 6dbc
00000110: 232d b2ad 32b9 dfb7 28b9 3e32 e6ae 3336
00000120: 94b6 afb9 c6b3 82b8 32af bc37 06b7 d2bc
00000130: 972e 17b7 00b9 b828 35bc bab2 d535 c028
00000140: 67ba 1231 c838 a23c fc2e bda8 4030 223d
00000150: fbb5 083b 7a3f 6cba 62b5 7328 2f2d 52b3
00000160: c7b6 32b8 c339 3b35 2b37 ac2e 6fad 4639
00000170: d336 2d3c e23d c5b8 23bb c422 8035 03b0
00000180: b237 32bc 4eb7 c7b0 0ca9 bd38 06b8 3fb8
00000190: e238 f5b6 10b6 4ab6 3c1f d232 9232 f330
000001a0: 9933 29bb d1b7 e5bb 06b3 0937 f4b4 c5ba
000001b0: 3338 a6b5 90b5 7daf d536 9234 ae30 33b2
000001c0: ee34 a435 cab7 24bb 2a3a 1b31 0bb0 c440
000001d0: 0430 f7ba 8f3c a2b6 b1b6 2c32 40a7 1cb6
000001e0: 3430 57b7 b733 cda9 1234 2531 5cb4 f72e
000001f0: d832 90ba 172b dc32 6630 c034 1f28 8630
0.6626 0.9336 -0.1125 -1.415 0.6357 0.09625 -0.2 2.156
0.2886 -0.8677 1.836 -0.706 0.0918 -0.0842 -0.3328 -0.4187
-0.1066 -0.3623 -0.354 -0.378 -0.02542 0.003082 -0.147 1.328
-0.0328 0.7314 2.125 -0.2227 0.09735 -0.6475 -0.0405 -0.539
-0.3037 -0.4246 0.4492 0.2089 0.0399 0.09033 0.7246 -1.085
0.2502 0.1046 -0.07385 -0.4587 -0.2058 -0.06024 0.321 -0.344
-0.469 -0.0004141 0.189 0.7114 0.1544 0.2485 0.2026 1.149
-0.1226 0.821 1.45 -0.3901 -1.183 -0.3074 0.003023 -0.561
0.377 -1.116 -0.0827 -0.794 -0.1263 0.6816 -0.0677 -0.9707
0.3545 -0.776 -0.516 -0.4192 0.05978 -0.08356 -0.1705 -0.4678
0.09247 -0.9106 -0.343 0.28 -0.0955 -0.2312 -0.019 -0.06036
-0.974 0.1683 1.08 -0.4277 -0.2583 -0.274 -0.2072 -0.1421
0.4915 -0.6855 -0.425 -0.1741 -0.1053 -0.0221 -0.627 -0.9395
0.0473 -0.9043 0.0418 -0.4438 0.09863 0.3757 0.5107 0.02435
0.2449 -0.5493 -0.5415 -0.966 0.0658 0.1511 -0.1597 0.4456
0.05273 -0.6675 -0.1288 0.3567 0.2119 0.6753 0.3364 -0.3123
-0.02777 -1.06 -0.6035 -0.7915 -0.003456 0.4927 -0.4019 -1.106
0.08026 -0.089 -0.6494 -0.492 -0.6445 0.1951 -0.1078 0.3875
-0.4111 -0.7104 -0.2429 -0.5635 -0.1124 0.4834 -0.439 -1.205
0.10297 -0.443 -0.625 0.03687 -1.052 -0.2102 0.3645 0.0371
-0.8003 0.1584 0.5977 1.158 0.10913 -0.03702 0.1328 1.283
-0.3738 0.879 1.869 -0.8027 -0.3364 0.03476 0.081 -0.2288
-0.4236 -0.5244 0.72 0.327 0.448 0.10425 -0.0849 0.659
0.4265 1.044 1.471 -0.596 -0.892 0.013214 0.3438 -0.1254
0.481 -1.049 -0.4565 -0.1493 -0.03943 0.5923 -0.503 -0.531
0.6104 -0.4348 -0.379 -0.393 0.007065 0.2131 0.2053 0.1547
0.2374 -0.895 -0.4885 -0.987 -0.2195 0.4397 -0.3096 -0.846
0.525 -0.353 -0.3477 -0.117 0.427 0.2856 0.1462 -0.1937
0.308 0.3525 -0.4868 -0.8926 0.7705 0.1595 -0.1263 2.383
0.1255 -0.8706 1.14 -0.4146 -0.4182 0.1929 -0.02832 -0.3818
0.1313 -0.4587 0.2411 -0.04532 0.2544 0.1608 -0.2725 0.1088
0.2139 -0.8203 0.0554 0.2144 0.1375 0.2969 0.0322 0.1414

sequential/dense_1/MatMul f2 [2, 16]
00000000: e6bc 74c0 b240 b039 f0bc b2be a1b9 81ad
00000010: 56b8 18c0 b53b fc3b 50b9 3eb8 f8bd 31b5
00000020: d63d fe3f 70c1 43be 2336 2e3c bd34 2036
00000030: 5f3e 4d40 72bc fcbc 683c 8138 813c d12f
-1.225 -2.227 2.348 0.711 -1.234 -1.674 -0.7036 -0.086
-0.542 -2.047 0.9634 0.998 -0.664 -0.5303 -1.492 -0.3245
1.459 1.998 -2.719 -1.565 0.3835 1.045 0.2961 0.3828
1.593 2.15 -1.111 -1.246 1.102 0.563 1.126 0.12213
